base_model_params.pt (torch, 150609 bytes, 6 tensors)

prediction.weight f4 [3, 4096]
00000000: 89c0 ca41 5991 a940 278d c641 db91 ae41
00000010: c6d4 c741 0439 c0c1 3e95 bcc1 5e75 c4c1
00000020: 1ed4 a7c1 b17a abc1 e432 b841 b60c c441
00000030: f9e6 86c1 10f0 4741 a78a c6c1 2c8d 8841
00000040: d234 b341 03bc ca41 5a3d c7c1 1191 3240
00000050: bcfc b5c1 9321 9541 30e5 0bc0 5b0a 623f
00000060: d6e5 8b41 bd79 c2c1 0f97 8e41 5080 b6c1
00000070: 677d 4841 051d abc1 20a5 88c1 6608 bfc1
00000080: 9c79 c441 15d0 9641 2e16 a5c1 a8ca afc1
00000090: 3c0c c7c1 9e59 afc1 4c44 a8c1 21ec b4c1
000000a0: 10cb dcc0 13d1 9c41 1670 c5c1 d350 7d41
000000b0: 5e1f 9641 c1a5 b841 3af9 c1bf d9f1 9f41
000000c0: 421b adc1 d60c 7541 4669 a141 b7dc c441
000000d0: 40c0 c441 ed6e bfc1 4481 bc41 eefb a0c1
000000e0: 09b9 afc1 04d0 8941 3550 aac1 ad36 ddc0
000000f0: e7a3 6dc1 c206 acc1 1804 8841 1230 cac1
00000100: 4054 bbc1 829a c2c1 e261 ad41 7f8d b9c1
00000110: 828d 0f40 fa28 c141 fe78 a041 b8b2 bac1
00000120: 78bd b4c1 2768 8d41 fb20 c6c1 3c6a e1bf
00000130: ddb4 bd41 2da6 c641 bce9 c141 fc79 a9c1
00000140: 5753 c6c1 c864 bd41 06b9 c3c1 02ad 89c1
00000150: 1e03 88c0 9611 bac1 348e a6c1 30df b6c1
00000160: bacf 8141 29c0 ca41 4c3e 4e41 170a 22c1
00000170: fc74 c2c1 5f35 a6c1 5e71 b1c1 776a c8c1
00000180: 2ad2 66c1 4a8d 9741 ea23 97c1 6a0f bbc1
00000190: 610d 3ac1 2e49 06c1 53e1 7f41 0e42 b0c1
000001a0: 5cf3 b0c1 5de5 91c1 8198 a741 726d a9c1
000001b0: 476a bac1 becb 0341 23af f6be b7f0 bf41
000001c0: 8ccc a9c1 9317 c241 85ef c4c1 6196 c4c0
000001d0: c4f7 aec1 b1f9 9440 3acf b841 cbff eebf
000001e0: e2e3 cac1 5d33 9941 1286 c7c1 e1ab b041
000001f0: 7d0b eb40 449b 4041 0145 a141 e197 fa3d
00000200: a3cb a8c1 fdeb a041 4439 b7c1 8703 b8c1
00000210: a36d c8c1 31a0 abc1 07c5 9041 b147 9041
00000220: 4603 a4c0 a5b7 ca41 d5e0 e1c0 2d2b bbc1
00000230: ba93 bfc1 14fc c640 b3d1 c2c1 46c3 acc1
00000240: 29c4 c2c1 59d4 c741 665a b741 6c23 98c1
00000250: ed79 0740 eaea 1fc1 a070 c5c1 02c2 2941
00000260: 4451 c441 10be ca41 e56a b2c1 463f f8bf
00000270: b7ff c3c1 d73c abc0 dc26 ba41 8363 b4c1
00000280: 1b1b a2c1 d5d3 3741 9904 2dc1 c06d b741
00000290: 49c0 81c1 0cd9 67c1 83e8 1241 1d9b 4cc0
000002a0: 5d21 08c1 1e60 bdc1 522a bcc1 3bc9 e0c0
000002b0: df25 a5c1 9668 7141 6e8a 7841 aa91 bfc1
000002c0: dfc9 b741 d8c7 c3c1 6787 b541 05d0 c141
000002d0: 2b15 abc1 8042 bac1 983f c5c1 eca0 a5c1
000002e0: 2001 9ac1 f22b a441 10ed c341 9e93 7241
000002f0: 2b7b c9c1 14fa c4c1 2550 3dc0 00f5 92c1
00000300: a87e ca41 aad3 9641 c3ae 5c40 6586 5640
00000310: 13fb b541 5dfc 81bf ae79 c2c1 2deb ca41
00000320: 394a ce40 65f0 8741 3627 02c1 b530 b241
00000330: a9ed b0c1 2a3a b6c1 9f8b b041 1ec2 c9c1
00000340: 1de4 b7c1 ca7b 9341 ba2e 8541 000b aec1
00000350: 1da7 bac1 d6e2 c2be 008a 11c1 a1a0 bcc1
00000360: dbd1 b741 0f11 2841 0023 a2c1 2954 20c0
00000370: 2109 c9c1 2cc5 8e41 9fac 16c1 3d1f 1441
00000380: 200a c441 881e 7b41 fb9d b541 205f 61bf
00000390: ee5c 72c1 ebc6 a7c1 eda5 b1c1 28d8 a641
000003a0: f43d b6c1 8ee9 3bc1 6d29 b43f 85b2 a8c1
000003b0: e04a a0c1 761a a8c1 9656 3c41 f75a a3c1
000003c0: c66b b740 b5f1 4041 5ad0 5041 1971 b2c1
000003d0: 360d 5341 3e73 d1bf b4da 43c1 7e5d b3c1
000003e0: 578e 58c1 78ee bd41 2eea bfc1 088e bfc1
000003f0: 4a70 75c1 eb34 1141 71a1 ca41 4251 16c1
25.344011 5.2989926 24.818922 21.821218 24.978893 -24.02784 -23.572872 -24.557308
-20.978573 -21.434908 23.024849 24.506207 -16.86278 12.496109 -24.817701 17.068932
22.400791 25.341803 -24.904957 2.7901042 -22.748405 18.641394 -2.1858635 0.8829705
17.487225 -24.309443 17.82376 -22.812653 12.530616 -21.38917 -17.080627 -23.8791
24.55938 18.851603 -20.63583 -21.973953 -24.880974 -21.918758 -21.033348 -22.615297
-6.899788 19.602087 -24.67973 15.832232 18.765316 23.080935 -1.5154183 19.99309
-21.63831 15.315634 20.176403 24.60777 24.593872 -23.929163 23.563118 -20.123013
-21.96535 17.22657 -21.289164 -6.9129243 -14.852515 -21.5033 17.001999 -25.273472
-23.416138 -24.325443 21.672794 -23.19409 2.243012 24.145008 20.059078 -23.337265
-22.592514 17.675856 -24.766104 -1.7610545 23.713312 24.83114 24.239128 -21.184563
-24.790693 23.67421 -24.465343 -17.209476 -4.2503805 -23.258587 -20.819435 -22.858978
16.226429 25.343828 12.890209 -10.127463 -24.307121 -20.77606 -22.180355 -25.051985
-14.42631 18.943989 -18.892536 -23.382526 -11.628266 -8.392866 15.992511 -22.032253
-22.118828 -18.236994 20.949465 -21.17844 -23.301893 8.237242 -0.48180494 23.992537
-21.224876 24.26151 -24.616953 -6.143357 -21.87098 4.65548 23.101185 -1.8671812
-25.36127 19.15008 -24.940464 22.083925 7.3451524 12.037907 20.158693 0.12236
-21.099432 20.115229 -22.902962 -23.001722 -25.053534 -21.453218 18.096205 18.035006
-5.1253996 25.33967 -7.0586953 -23.396082 -23.947132 6.2182713 -24.352392 -21.595348
-24.345781 24.978685 22.91914 -19.017296 2.1168168 -9.994852 -24.679993 10.609865
24.53968 25.342804 -22.302195 -1.939431 -24.49986 -5.3511767 23.268974 -22.54859
-20.263235 11.489217 -10.813622 22.928589 -16.21889 -14.49049 9.181766 -3.1969674
-8.508145 -23.671932 -23.520664 -7.0245643 -20.643492 15.088034 15.533796 -23.946125
22.97357 -24.47258 22.691114 24.226572 -21.385336 -23.28247 -24.656052 -20.703575
-19.25055 20.521458 24.490753 15.161039 -25.18514 -24.622108 -2.9580166 -18.369629
25.311844 18.853352 3.4481666 3.3519528 22.747595 -1.015514 -24.309414 25.364832
6.4465604 16.99238 -8.134573 22.273783 -22.116045 -22.7784 22.068174 -25.219784
-22.986383 18.435444 16.647816 -21.755371 -23.331598 -0.38063687 -9.096191 -23.578432
22.977468 10.504165 -20.26709 -2.5051367 -25.129457 17.846275 -9.417144 9.257627
24.504944 15.694954 22.702139 -0.88035774 -15.147688 -20.972128 -22.206018 20.855545
-22.78025 -11.74452 1.4075142 -21.087168 -20.03656 -21.01292 11.771139 -20.419416
5.731906 12.0590105 13.050867 -22.305223 13.190725 -1.6363294 -12.240894 -22.42065
-13.534751 23.74144 -23.989346 -23.944351 -15.339914 9.075419 25.328829 -9.394838

prediction.bias f4 [3]
00000000: 2ec3 ca41 bdc9 ca41 3fed ca41
25.345303 25.348505 25.365843

exp_avg f4 [3, 4096]
00000000: d1b5 2dbb 842e e7ba 1622 a0bc e3f3 13bb
00000010: 08cd f4bb 99a8 503b 770d 8239 be7b 983c
00000020: 1907 8a3b 23f5 ce3a e65d 9dbb 61d8 7eba
00000030: 26b8 733a 28b9 bfb9 35ad 1c39 d6f7 9cba
00000040: 94ee 28bb 4abf 16bb 9c09 f23b 6ee9 89b9
00000050: c6f7 863b 8e4a bbba bd35 063a 1b89 8b38
00000060: e0b4 83ba 3084 223c 7ce6 5bbb bec8 363b
00000070: 9b33 baba dc67 883b 9f0d ff3a 26b4 da39
00000080: 5fb6 90ba e0f3 15bb 000e c23b d05f eb3a
00000090: 51db d53b a49b 963b 8d8b 463b 5b25 0f3b
000000a0: 59f4 a239 495e c9ba 93c7 2b3c dc30 06bb
000000b0: 6d9a b1ba bd50 16bb dce3 bd39 40e9 8cbb
000000c0: 421d 143b bbc3 82ba 554f 44bb 1560 eeb9
000000d0: d2a6 53bc 38df 333c 8d03 a2bb 4721 123b
000000e0: e5f1 083b a812 7dbb 99dc 123b 0b0a 7739
000000f0: 6149 403b 51b2 db3b 878c aaba 396d 493b
00000100: cfaa 283c a5bf 8d3b 1cd4 7cbb 98e0 a53b
00000110: 60d9 1aba 66d4 d7bb a459 a1bb 21d7 143c
00000120: bb46 853b a38d 5fba bfef 893c 759a ae39
00000130: b8cd b9bb b5ce ffbb 63f2 eaba bb3a 863a
00000140: 8fb7 093d 59e5 29bb 0210 583a 4d4a 113b
00000150: 939e eb39 7456 ad3a dea8 a63b 6894 863b
00000160: 79cf 0cbb 1f54 1ebb e962 7dba 4fa0 1a3a
00000170: 407e a23b c6a0 283b 7d80 813b e3c8 ea39
00000180: a8de c33a 3e2f a0ba 94de 3e3b e18d b33b
00000190: 3d40 a23a 9eec 753a 3719 1dbb d8b6 ed3b
000001a0: 1fec 963b d8bf 453a f6a2 19bb 7e8f ca3b
000001b0: 6002 af39 0429 17ba bab0 c23a 44fc 28bb
000001c0: a9e4 183b 7911 bfbb 1f52 b43b f646 643a
000001d0: 04c2 453b 0ff3 0bba 2112 c2ba 21bd a238
000001e0: 59cf 873a 7fcb c9ba 9d35 ff3a a187 4abb
000001f0: e25a cab9 716e b1ba bdca f1ba f266 2eba
00000200: f70c df3b 9196 45bb ecd7 993a 5215 733c
00000210: 7af0 aa3b d2ea 433b 6f5a d6ba 6f54 8cbb
00000220: 7ea5 4739 8182 a3ba 9ab4 363a ef5c 913b
00000230: 5abf aa3b 5e03 17ba bfe2 c03b 42c7 883b
00000240: 1f81 b63b b4b3 5bbb 7e9c 10bc 8dad cb3a
00000250: 1391 1538 2593 0f3a d97f bd3b 80c1 f9ba
00000260: 64ce a6bc e8de bfba 8ec1 7a3b d49d 1339
00000270: 26ee 4d3c 1276 9c38 87ff 7fba bbad a33a
00000280: e4a3 493b 32d1 85ba 8fdf d43a 82b1 70bb
00000290: 5388 463a 5156 a53a ccf5 90ba df05 4938
000002a0: 4198 013b a5c1 e43a d7df da3a 7f53 c53a
000002b0: 9a7f cb3a 7e4b 30ba ab40 babb a543 2f3c
000002c0: c755 50bb 44eb ab3b 673f 2dbc 535c 58ba
000002d0: da1b 783b ba04 ba3b 7cb7 883c d7c3 1c3b
000002e0: fdbc 143a 9c39 81bb 19ca 7dbc ee81 baba
000002f0: 4ba0 323c 04b1 6f3b bc72 ac39 1d1f 983a
00000300: 7de7 f4ba 6805 3dbb c84f 3639 2f6d 42ba
00000310: 53d8 32bc a39e 20b7 22fb 283c 3796 54bb
00000320: 6b55 ffba ea45 10bb a85c 133a 1b7c aebb
00000330: 8f8f 7b3b 6910 b53b 0540 52bb fa6e 7e3b
00000340: cb6b 753b ea84 9bbb cd78 c3ba db8b 943b
00000350: 3a54 973b 7107 5d38 8f14 083a 9f67 183c
00000360: 0cd6 e2bb 8a45 03ba 632e 963b f7b9 4b39
00000370: 75f0 9e3a 651d c1ba f917 293a 2813 7cba
00000380: dce3 0fbb 41be f1b9 ef9b 00bc f4a8 e139
00000390: b2d5 d13a 0924 953a 351a 673b ae1b dbba
000003a0: bb72 b23a bd7f 9a3a af2d 87b8 028a ad3a
000003b0: e545 333a 0c35 ad3a c1f5 95ba b7f5 f13a
000003c0: e47f 9cb9 2563 41ba 4c6e 8fba 65c6 053c
000003d0: 5520 6cba 13ba 09b9 b112 593b 5368 c339
000003e0: e9d7 fe3a 7099 1cbc 4a8b 9a3b 9658 8a3b
000003f0: ee84 1b3b 3d09 1bba 8b77 02bb fe83 1a3a
-0.0026506076 -0.0017637764 -0.019547503 -0.0022575788 -0.0074707307 0.0031838773 0.00024805564 0.018613692
0.004212272 0.0015789609 -0.0048024533 -0.0009721574 0.00092971546 -0.0003656831 0.00014941844 -0.0011975716
-0.002577697 -0.00230022 0.0073863994 -0.00026304595 0.0041188924 -0.0014289187 0.0005119702 6.6535744e-05
-0.0010048412 0.009919211 -0.0033554127 0.0027890648 -0.0014206053 0.0041627716 0.0019459015 0.0004171442
-0.0011040679 -0.0022880957 0.005922079 0.0017957631 0.0065263887 0.0045961905 0.003029558 0.0021842334
0.000310811 -0.0015363182 0.010484594 -0.00204759 -0.0013550051 -0.0022936307 0.00036218658 -0.0043002665
0.0022600447 -0.0009976545 -0.0029954512 -0.00045466484 -0.012918191 0.0109785125 -0.004944271 0.0022297667
0.0020896134 -0.0038615856 0.0022409318 0.00023559497 0.0029340612 0.0067046066 -0.0013011851 0.0030735268
0.01029463 0.0043258243 -0.0038578575 0.005062174 -0.0005907025 -0.006586599 -0.004924016 0.009084494
0.0040672696 -0.00085278804 0.016837953 0.00033302946 -0.0056702755 -0.007806624 -0.001792502 0.0010240892
0.03362232 -0.0025924055 0.00082421314 0.002216953 0.0004494084 0.0013224618 0.0050860485 0.004107047
-0.0021485968 -0.0024159027 -0.0009665923 0.00058985216 0.004958898 0.0025730594 0.0039520846 0.0004478163
0.0014943676 -0.001222111 0.0029124366 0.00547956 0.0012378764 0.0009381267 -0.0023971328 0.0072544627
0.0046057845 0.00075435406 -0.002344308 0.0061816564 0.0003338037 -0.00057663047 0.0014853694 -0.0025785128
0.0023329651 -0.0058309403 0.0055029537 0.0008708084 0.0030175457 -0.0005338648 -0.0014806428 7.75999e-05
0.0010361477 -0.001539573 0.0019470934 -0.0030903595 -0.00038596155 -0.0013536942 -0.0018447262 -0.0006652913
0.0068069655 -0.003014956 0.0011737323 0.014836626 0.0052166553 0.0029894602 -0.0016353856 -0.004282526
0.0001903977 -0.0012474806 0.0006969661 0.0044361274 0.005210799 -0.00057606946 0.0058864052 0.004174144
0.0055695917 -0.003352386 -0.008826373 0.0015539393 3.565948e-05 0.00054769433 0.005783063 -0.001905486
-0.020362087 -0.0014638575 0.003826234 0.00014077808 0.012568986 7.460652e-05 -0.00097655546 0.0012487689
0.0030767852 -0.001020944 0.0016240942 -0.0036726897 0.00075734145 0.0012614225 -0.0011059581 4.7927602e-05
0.0019774588 0.001745273 0.001669879 0.0015054791 0.0015525699 -0.00067251164 -0.0056839786 0.01069728
-0.0031789409 0.0052465517 -0.010574198 -0.00082535035 0.0037858398 0.005676833 0.016689055 0.002392044
0.00056739134 -0.003943635 -0.015490078 -0.0014229396 0.010902475 0.0036574015 0.0003289188 0.0011605952
-0.0018684712 -0.0028842334 0.00017386593 -0.00074167823 -0.0109158335 -9.573679e-06 0.010313781 -0.0032438168
-0.0019480413 -0.0022014328 0.0005621412 -0.005324853 0.0038385128 0.005525638 -0.0032081616 0.0038823471
0.0037448283 -0.004746069 -0.0014913321 0.0045332736 0.004618195 5.2697436e-05 0.0005191052 0.009302049
-0.006922489 -0.00050076155 0.0045831664 0.00019428866 0.0012126105 -0.0014733492 0.00064504106 -0.00096158916
-0.0021955883 -0.00046108852 -0.0078496775 0.00043041224 0.0016009121 0.0011378537 0.0035263423 -0.0016716623
0.0013614515 0.0011787337 -6.445811e-05 0.0013239982 0.0006838723 0.0013214662 -0.0011441038 0.001846007
-0.00029849925 -0.00073771394 -0.0010942905 0.008164977 -0.00090075034 -0.00013134656 0.0033122713 0.00037271026
0.0019443008 -0.009558067 0.0047163116 0.004221986 0.0023730355 -0.00059141574 -0.001990768 0.0005894302

exp_avg_sq f4 [3, 4096]
00000000: f789 da36 1b8f c738 115d be39 ec6c be36
00000010: 89b7 6c38 690d 3c37 ed60 9933 6030 8739
00000020: 2f57 9337 bcd3 c336 89cc e237 f1b2 a335
00000030: 81f6 8a35 a183 0736 0e1b b932 d660 8136
00000040: 2bea 2f37 1ef0 a836 c4a8 7b38 75e3 fb35
00000050: bed3 8b37 8258 db36 b04f be36 03cc 6136
00000060: b0a4 5436 8483 f838 a638 b537 a60a 0237
00000070: 6e9e 0537 27ee 8c37 4298 ec36 6187 3534
00000080: 7d0d b735 0e3b e436 dda7 3638 43a3 c436
00000090: cb72 2638 b876 d937 a616 8937 9ec6 ec36
000000a0: fbff 0536 5219 9036 1d4f ef38 3cba 2e37
000000b0: 618b 4e36 8d36 bf36 5bd1 0f37 5216 c837
000000c0: f725 3737 8360 1936 4bcc 4937 2f55 7434
000000d0: c77d 3039 c2a0 0839 cff4 b537 bf5a 0237
000000e0: 7138 0837 5419 eb37 7923 0d37 3234 7035
000000f0: 18a1 0438 84f3 3e38 bbae 4d36 7a95 1737
00000100: 0689 c238 3d47 9837 b7c8 7337 1ee5 0e38
00000110: 2855 4a36 2ee5 3938 50c5 1838 ac14 b238
00000120: c5a5 8337 01d5 bc35 abc7 7a39 a1cf fc35
00000130: 8443 0a38 72b7 6538 d70b 4d36 51f1 f035
00000140: 78a5 7b3a 0954 f336 4779 1f35 35e4 0737
00000150: ddc9 3836 2e73 0136 790b ca37 fe43 ac37
00000160: e8c8 a936 bb19 b636 e335 2a36 d445 e535
00000170: 40d1 b037 4ee1 fa36 d423 8637 0d91 5634
00000180: e88c 9436 fbfc 4b36 ce32 2a37 3544 e837
00000190: 7bb5 9d36 9670 1a36 a45e 5637 42a4 8038
000001a0: 7b1a 9b37 6abc 4135 3ba3 1337 2ca4 6938
000001b0: 4b34 2534 1f54 5437 4439 8137 db13 9636
000001c0: 7dac e336 9112 1438 6088 d837 0165 0637
000001d0: adbd 2137 ecd4 d635 8799 5536 3d8c 3d35
000001e0: ec05 8635 b502 5b36 27d3 6136 23cf a237
000001f0: e9ad 9a36 bb06 e936 3f72 da36 7ac2 6a36
00000200: 6194 7138 0ed9 2137 59b3 b735 785f 6539
00000210: b440 d737 6866 3737 c994 bc36 931a 0338
00000220: af15 5135 0510 bc35 8b03 8236 1ce0 ae37
00000230: f4e7 ef37 3bf4 3336 93d6 e437 bad4 f937
00000240: a269 e437 9c4a 2637 b338 8938 3eb6 8136
00000250: 522e e035 260c ed35 bde0 1438 8651 6b37
00000260: b08f b539 eeb5 0636 287c c337 f7d2 cc34
00000270: eec1 1c39 f345 dd35 e664 4435 3ed7 1a36
00000280: 7295 2037 59e1 1237 92b4 1237 7ede 7f37
00000290: 1a7f f336 ccc3 8136 c2a4 3836 eae0 7336
000002a0: ef41 0f38 6a40 3c36 21d8 3b36 c471 9b37
000002b0: b8a0 1d36 62fd b435 18be 1338 4739 fa38
000002c0: 374d 5337 54ef e937 0875 0539 a75c 4835
000002d0: 1204 b137 c80f 0c38 113b 8b39 b3b4 ed36
000002e0: b3ea bf34 b8a3 ff37 ac40 5c39 9a49 8f36
000002f0: 4d79 f838 dc90 6c37 2deb 0337 60fb 1736
00000300: 4c17 5336 1dd2 3537 a4a7 fe34 bea7 0637
00000310: 5af9 0a39 3296 3f36 866f db38 308d 2437
00000320: 1672 c936 1aa3 4f37 aad0 2f36 424a 3638
00000330: 802d 7137 96de d137 a378 9837 e3be 6737
00000340: a3ee 8c37 f3b1 2938 2dc2 bf36 5754 b937
00000350: a165 c037 ea5e b534 3afd 2a36 b4c8 ba38
00000360: 14b3 6638 29e8 3d36 b055 e337 c280 5d35
00000370: fc25 cb35 370f f536 2326 5637 d9bd 2d36
00000380: 61fb 9d36 aea7 f635 cb95 7238 2fbe 6036
00000390: 7635 8936 0779 2d36 7170 9d37 64c5 8d36
000003a0: d6d0 d435 d7d5 ee36 acd0 5035 f5c6 4a36
000003b0: fd41 8135 0668 2f36 f32f 9836 c734 a236
000003c0: 53a0 5836 f33e 8436 a1d8 e236 8f99 9838
000003d0: cc5f c336 c442 1637 ab79 4c38 9866 3734
000003e0: 5a84 5d37 2c08 c438 e86a af37 6b55 b437
000003f0: ec86 3537 b0b3 ec36 7e19 7536 8d23 b735
6.5129675e-06 9.515715e-05 0.00036308964 5.6751214e-06 5.6437715e-05 1.12087955e-05 7.1422484e-08 0.0002578525
1.7564364e-05 5.836102e-06 2.7036544e-05 1.2196525e-06 1.0353543e-06 2.0193186e-06 2.1549138e-08 3.855773e-06
1.0485334e-05 5.0347435e-06 6.000024e-05 1.8767156e-06 1.6668691e-05 6.5370123e-06 5.671718e-06 3.3646363e-06
3.1686322e-06 0.00011850058 2.160326e-05 7.751083e-06 7.964305e-06 1.6800199e-05 7.051073e-06 1.6906189e-07
1.3638488e-06 6.8018044e-06 4.3548516e-05 5.8602614e-06 3.9684393e-05 2.5923699e-05 1.634222e-05 7.05647e-06
1.9967545e-06 4.294482e-06 0.00011411144 1.0414569e-05 3.0777521e-06 5.698594e-06 8.572209e-06 2.3852252e-05
1.0916489e-05 2.2854954e-06 1.2028099e-05 2.275526e-07 0.00016831524 0.00013029858 2.169088e-05 7.769732e-06
8.119373e-06 2.8025977e-05 8.412514e-06 8.948292e-07 3.1621283e-05 4.552632e-05 3.0649087e-06 9.035104e-06
9.2761635e-05 1.8152985e-05 1.4530661e-05 3.406882e-05 3.0149913e-06 4.4320877e-05 3.6423386e-05 8.491552e-05
1.569361e-05 1.4069084e-06 0.0002391624 1.8835891e-06 3.2964643e-05 5.47687e-05 3.0554272e-06 1.7951626e-06
0.0009599547 7.2517473e-06 5.94086e-07 8.099761e-06 2.7535636e-06 1.9289541e-06 2.4085619e-05 2.053566e-05
5.059981e-06 5.427018e-06 2.536334e-06 1.7082152e-06 2.1078275e-05 7.4768095e-06 1.5990729e-05 1.9983072e-07
4.4271474e-06 3.0396611e-06 1.01446185e-05 2.7688317e-05 4.7000917e-06 2.3013322e-06 1.2777429e-05 6.134111e-05
1.848977e-05 7.217228e-07 8.799888e-06 5.5704426e-05 1.5385847e-07 1.2655771e-05 1.5404665e-05 4.47266e-06
6.7852075e-06 3.530324e-05 2.5812711e-05 8.010539e-06 9.64051e-06 1.6006211e-06 3.1828838e-06 7.061206e-07
9.985501e-07 3.2635119e-06 3.365052e-06 1.940836e-05 4.6098035e-06 6.9447246e-06 6.5102063e-06 3.4981917e-06
5.7597066e-05 9.646885e-06 1.368676e-06 0.00021874707 2.5660127e-05 1.0931493e-05 5.6201575e-06 3.1257583e-05
7.789012e-07 1.4011754e-06 3.8747144e-06 2.0846775e-05 2.8599032e-05 2.681524e-06 2.7279637e-05 2.9782172e-05
2.7228907e-05 9.911742e-06 6.54323e-05 3.8657154e-06 1.6702782e-06 1.7661412e-06 3.5495254e-05 1.4026073e-05
0.00034630066 2.0073453e-06 2.3303626e-05 3.8151458e-07 0.00014949564 1.6486141e-06 7.3162516e-07 2.3073076e-06
9.571539e-06 8.754746e-06 8.74432e-06 1.5250987e-05 7.256761e-06 3.8672933e-06 2.7514038e-06 3.634074e-06
3.4155262e-05 2.8051677e-06 2.7990975e-06 1.8530416e-05 2.3488374e-06 1.3484789e-06 3.522457e-05 0.00011931598
1.2594558e-05 2.788721e-05 0.00012727466 7.4640633e-07 2.110194e-05 3.33933e-05 0.00026556154 7.0841866e-06
3.5747289e-07 3.0474606e-05 0.00021004927 4.2703005e-06 0.000118481556 1.4100424e-05 7.862965e-06 2.2647073e-06
3.145501e-06 1.08373615e-05 4.743316e-07 8.026078e-06 0.00013253596 2.8548643e-06 0.000104635066 9.8080345e-06
6.003548e-06 1.23761365e-05 2.619849e-06 4.346134e-05 1.4375313e-05 2.5018391e-05 1.8175988e-05 1.3813117e-05
1.6800424e-05 4.0458468e-05 5.7148486e-06 2.2092992e-05 2.2935508e-05 3.3782936e-07 2.5479371e-06 8.906555e-05
5.5003053e-05 2.829833e-06 2.710041e-05 8.2516283e-07 1.5135734e-06 7.30334e-06 1.2764273e-05 2.5889515e-06
4.708229e-06 1.837723e-06 5.78368e-05 3.3489302e-06 4.089142e-06 2.5849456e-06 1.8768218e-05 4.2251067e-06
1.585601e-06 7.117847e-06 7.7789696e-07 3.0216154e-06 9.630454e-07 2.6137582e-06 4.535535e-06 4.8341203e-06
3.227983e-06 3.941235e-06 6.760544e-06 7.276527e-05 5.822605e-06 8.956242e-06 4.8750702e-05 1.7080527e-07
1.3203442e-05 9.3475304e-05 2.0911408e-05 2.1497448e-05 1.0819855e-05 7.0542665e-06 3.6522683e-06 1.3644909e-06

exp_avg f4 [3]
00000000: bf63 b4be b528 a2be 8373 a9be
-0.3523235 -0.31671682 -0.3309594

exp_avg_sq f4 [3]
00000000: f15c ec3d 5a52 eb3d cbf8 e73d
0.11541165 0.11490317 0.1132675
